src/model5.npz (npz, 898378 bytes, 18 tensors)

h1/0/b4 f4 [200]
00000000: 9e14 443d 2826 fc3c d753 1c3d a924 813d
00000010: 109d 3d3d a2c5 0e3d 665a 553d add3 373d
00000020: e94c 4f3d 4c5a 243d 1287 983d c36b 4c3d
00000030: 8c6c 8d3d dd98 613d acc0 5d3d 8992 553d
00000040: 5059 0f3d 70f8 983d b423 363d 461a 583d
00000050: 22ff 8a3d 7fb3 383d 43e5 ef3c 1d0a 5a3d
00000060: a9e2 883d cf4b 213d e5a7 393d f668 4f3d
00000070: a059 603d a161 5b3d ebac 953d 5dfb 803d
00000080: 9dce e23c 4e6a 333d 6cf5 783d 0328 ce3c
00000090: e6a9 4c3d 5258 e73c efdc 1a3d f947 303d
000000a0: 796c 823c 6fd4 a33d 1486 563d 9a42 5e3d
000000b0: 6a6d 273d 8fbf 71bb 84bb e43c ea23 3b3d
000000c0: cd66 1a3d a9d1 103d d079 4a3d 9a28 813d
000000d0: 8fee 883d e99f 643d 38f3 5b3d 90ee 383c
000000e0: 5e9b 0f3d e910 fb3c 85e0 3e3d 873b 3a3d
000000f0: d06f a53d b809 833d 6ccf 383d ad37 033d
00000100: 596f 213d 3491 263d 2fd5 773d 7dce 593d
00000110: eaf8 683d 8279 b73c 2122 af3c 5eea 273d
00000120: c298 823d 0309 883d 0a0d 373d b742 593d
00000130: e0d5 2f3d 9516 6f3d 3da5 ad3d a438 603d
00000140: e875 b33d 86ca 5d3d 4ad2 af3d 26fb de3c
00000150: 241a 873d 6d52 633d bb78 473d f38a 333d
00000160: 0886 473d 3298 1c3d 0ca0 7c3d 3a63 8e3d
00000170: 39d8 953d 5c12 143d f8fa 8f3d a864 ca3c
00000180: 2a46 3e3d dd78 733d 3eba af3d 42ac 963d
00000190: 5568 743d fcb3 1a3d 3da4 643d c81c 6b3d
000001a0: cc2d 803d 9612 273d 5af2 9a3c 2e4a 113d
000001b0: a5fd 803d 6a67 6e3d 29d7 313d 9ece 193d
000001c0: 80fa 7b3d 0206 fe3c 05d9 0a3d 6b1d 6f3d
000001d0: 7a2e 803d 76b9 693d f508 2e3d 8cda 8c3d
000001e0: aa0c 2c3d ddb7 9b3c 96aa e13c b237 103d
000001f0: d2d1 523d 72db 703d 9048 7c3d 2bd9 c33c
00000200: da25 283d 4f27 b93d 9846 4b3d 5e74 6c3d
00000210: 2790 5e3d 2264 023d 679e 3b3d 94d3 403d
00000220: 6e1e 5b3d 6a5f 093d b3ea e43c 335c b23c
00000230: 1f68 933d 9d7e 4e3d 98f8 5c3d 0674 1e3d
00000240: dafc 4b3d f0df 373d 8f3d 1d3d fbcb 5a3d
00000250: eb4e 543d d46e 463d 88cb 313d 62b8 1c3d
00000260: 81db 503d e218 863d c962 723d 37c3 233d
00000270: 281f e33c 1e99 563d 5957 283d b886 8b3d
00000280: c13b 893c d469 493d 0f29 943d 2987 183d
00000290: 21dc bf3b 9a60 4b3d 7458 573d c6aa 953d
000002a0: d8d7 363d 25cf 2a3d de2a d73c 05df 663d
000002b0: 91ed 573d cff8 443d 302c 793d 360f 6c3d
000002c0: cd9e f83c d1bf 303d 42e0 203d d822 823d
000002d0: 3008 073d f370 243d 0179 0a3d df72 273d
000002e0: 8c34 223d 9280 2f3d b987 163d 9445 8f3d
000002f0: 1c1a 603d 0756 023d 3fb0 623d 9258 5d3d
00000300: f8d6 2b3d e91c 2b3d d59c 503d c009 5d3d
00000310: 8487 4d3d 959b 973d 8b58 2f3d a894 e83a
0.047871225 0.030779913 0.038165893 0.063058205 0.046292365 0.034856446 0.052088164 0.044879604
0.050610457 0.040125176 0.074476376 0.049907457 0.06905469 0.055077422 0.054138824 0.0521417
0.034997284 0.07469261 0.044467643 0.05275943 0.06786944 0.045093056 0.029284125 0.0532323
0.06683857 0.039378937 0.045326132 0.050637208 0.054772973 0.053559903 0.07308372 0.06297944
0.027686412 0.043802552 0.060780928 0.025165563 0.049966715 0.028240357 0.037808355 0.04303739
0.015920864 0.07999503 0.05237396 0.054262735 0.04087583 -0.003688786 0.027921446 0.045688547
0.037695695 0.035356198 0.049432576 0.06306572 0.066861264 0.055816565 0.05369875 0.0112873465
0.03506028 0.030647712 0.046600837 0.045466926 0.08077967 0.06398338 0.045119688 0.03203552
0.03941283 0.04066582 0.060506042 0.05317544 0.056878008 0.022396807 0.021378579 0.040994994
0.063767925 0.06642344 0.04469017 0.05304214 0.042928576 0.058371145 0.08478782 0.054741517
0.08762723 0.05414822 0.08585031 0.027219366 0.06596783 0.05549853 0.048699122 0.043833684
0.048711807 0.038231082 0.06167607 0.0695252 0.07316632 0.03615032 0.0703029 0.0247062
0.046453632 0.059441436 0.08580445 0.07357074 0.05966981 0.037769303 0.055820692 0.057400495
0.06258735 0.04078921 0.01891439 0.035471134 0.06298379 0.058204092 0.043418083 0.03755056
0.061518192 0.031008724 0.033898372 0.058377665 0.06258865 0.057061635 0.04248901 0.06877622
0.042004265 0.019008571 0.027547162 0.035209365 0.05146963 0.05880303 0.06159264 0.023907265
0.041051723 0.09040701 0.04962787 0.057728164 0.054336693 0.031833775 0.04580536 0.047076777
0.053495817 0.03353826 0.027943945 0.02177248 0.07197594 0.050413717 0.053948015 0.038684867
0.049801685 0.044891298 0.038388785 0.053417187 0.051833075 0.048445538 0.043406993 0.03826178
0.050990585 0.06547715 0.05917624 0.039981093 0.027724817 0.052392118 0.041098926 0.06812805
0.016752126 0.04917319 0.07234394 0.037238274 0.005855099 0.049652673 0.05257459 0.07307963
0.04463944 0.041701455 0.026265558 0.05636503 0.052716795 0.048088845 0.060833156 0.057631694
0.03034916 0.04315168 0.03927637 0.06354302 0.032966793 0.04014678 0.033806805 0.040881034
0.039600894 0.042847224 0.03675053 0.06995693 0.0547124 0.031820323 0.055343863 0.054039545
0.041953057 0.041775618 0.050930817 0.053964376 0.050178066 0.07402722 0.04280905 0.0017744498

h1/0/b1 f4 [200]
00000000: d76b fe3c a392 433c 9da0 b73c bb4a 8b3c
00000010: 614a 173c 3685 d53c d523 b33c a226 1e3d
00000020: 4d9b 1a3d 5041 4abc 0803 383d e7c5 a83c
00000030: 7987 c63d 83d5 863d b18a 113c 9fa2 123d
00000040: 3283 8cbb f325 103b 157b 543c 7df2 603d
00000050: 2212 fb3c e6da 0b3d ab4f f53c 4296 043d
00000060: 6122 d83c 2739 dc3b cda6 53bb fc93 223d
00000070: a6ea e23c 6025 873d 4e21 9c3d 3552 a03d
00000080: 7813 ab3c 9a85 d93c 5966 6cbb 5cf7 253d
00000090: df1f 293d 9fc2 2e3c cbe9 a23c 1336 143d
000000a0: 832a 113c 3756 8cbb 3237 d43c a5d5 af3d
000000b0: 898f 1a3d 26cd 6b3d 1768 993c 39eb 3d3c
000000c0: 526f dd3c 3c55 843b 4268 403d 9698 233d
000000d0: 160c 513c c52e 923d dc52 e73b f1c5 db3c
000000e0: d3ab 513d ce8b 6f3d 1d14 323d bdb6 f73c
000000f0: 8ac9 4e3d 348e 743b f55a 013d b9a2 843d
00000100: e3c4 2f3d 4669 e73c 4ccc 65bc c3a4 863d
00000110: fef1 12bc ce3f a43d 1b17 843d 2a3e 203b
00000120: a34e 333d 9845 653d 13ad cd3c ba20 6d3d
00000130: 4d83 7a3c 84bb 943a 7e0c ca3c b28f 6b3d
00000140: e1e1 ad3d a9ea cf3c 66a3 d1bb 13d3 d03c
00000150: 3b77 c73d c6a9 123d 0cbe 8c3c 2b56 fbbb
00000160: f785 603c e0a3 6c3c a9eb 4b3d 4330 fd3c
00000170: b365 a3bb 5e33 293d 5074 d53b 2861 c8bb
00000180: 76e3 143d 6ad4 a73d 248d 0b3d 05c9 2a3d
00000190: 7b18 9c3d 9d46 853d 97cd 293d ed65 ff3c
000001a0: 85b0 9b3c f8f5 913c a959 4f3d d426 163c
000001b0: 6aeb 12bd 7129 113d 2223 c13c c7c2 f93c
000001c0: 4363 583d fd55 cf3c 348a 413c 40c8 523d
000001d0: ea9d 953d f9cd d93d 7596 553b e24a ac3d
000001e0: a563 bb3c abfa 6e3d b479 2e3d 4f28 86ba
000001f0: c6a8 c1bc 762c 703b cb64 573c c745 e93c
00000200: 1aeb 3e3d 46f0 9b3c 5654 213d 816b 9f3c
00000210: ee4b ef3b 17aa 173c 6d03 e1bc dac7 4c3c
00000220: b5ec 523d dd9a 8d3c 9690 613c df90 253d
00000230: 4cd0 fa3c 0d3c 8e3d f74a 0b3d 2213 d23c
00000240: a584 9e3c a2d6 743d d938 fcbc cfce ee3c
00000250: d009 8e3d fac3 b43c d6ab 663c 71a9 d03c
00000260: 01b8 0e3c 5742 d93c 5016 ba3b a7cf 013d
00000270: c776 c83c ee05 643d 98e5 023d 71db 7a3d
00000280: 1fa3 8e3b ed50 b03c 14a6 343d 6600 413b
00000290: faa3 b73c 0f4c 153d 91ff 613d 5218 933d
000002a0: c37d 4f3c c6e1 973c 33f7 133d 9461 103d
000002b0: bd00 f73c 2fb4 3d3c 6b8c 473d 9735 103d
000002c0: f7ce 2b3d e57b d73c 1896 cbbc 7772 8b3d
000002d0: fa01 9e3c a776 263d 31da 813a 68b5 4b3c
000002e0: 006a 313d bd53 4e3d 334c 5e3d bb5f 573d
000002f0: a26e 043d fa72 b53c 59a0 1c3d 1587 4c3d
00000300: 340e 353d 6b2f e23c eb24 3f3d 8ee2 873c
00000310: 67b4 f53c cea0 7b3c 525c 8c3d 5124 d93c
0.031057281 0.011936816 0.022415454 0.017003408 0.009234042 0.026064496 0.021867672 0.038611062
0.037745763 -0.012344673 0.044924766 0.02060218 0.09693808 0.06583693 0.008883164 0.03579962
-0.0042881006 0.0021995276 0.012968798 0.054918755 0.030648295 0.034144305 0.029945215 0.03236986
0.02638358 0.0067206803 -0.0032295466 0.03969191 0.02769978 0.065989256 0.0762354 0.0782818
0.020883307 0.026552964 -0.0036071746 0.040519103 0.04129016 0.0106665185 0.019886872 0.03618438
0.008860233 -0.0042827385 0.025905225 0.08585671 0.037734542 0.05756869 0.018726392 0.011591726
0.02703062 0.004038481 0.046974428 0.03994044 0.012759229 0.07137827 0.007059438 0.026827784
0.051189255 0.058482938 0.043476213 0.030238504 0.05048517 0.0037316205 0.031580884 0.064763494
0.042912375 0.02824844 -0.014025759 0.065743946 -0.008968828 0.08019982 0.064497195 0.0024451115
0.043776166 0.055974573 0.025106942 0.05789254 0.015290094 0.0011347388 0.02466416 0.057510085
0.084903486 0.02538045 -0.0063976524 0.025491273 0.09739538 0.03580644 0.017180465 -0.007670184
0.013703815 0.014443368 0.04978529 0.030906802 -0.0049864887 0.041308753 0.0065141097 -0.0061150976
0.036349736 0.08194812 0.03407015 0.041695613 0.07621857 0.06507609 0.04145583 0.031176532
0.01900507 0.017817482 0.050622616 0.009164531 -0.03586904 0.035439912 0.023576323 0.030488385
0.05282904 0.025309557 0.011812735 0.051460505 0.0730551 0.10634989 0.00325909 0.0841272
0.022874663 0.058344524 0.042596534 -0.0010235402 -0.023640048 0.0036647595 0.0131465895 0.028475655
0.04661093 0.01903547 0.03938707 0.019460442 0.0073027527 0.009256861 -0.027467454 0.01249882
0.051495273 0.017285759 0.013767382 0.040421363 0.030616902 0.069450475 0.03400704 0.025643889
0.01935036 0.059775002 -0.030788826 0.029151348 0.06935465 0.022066105 0.014079055 0.025471421
0.008710862 0.026520891 0.0056789294 0.031692173 0.0244707 0.055669717 0.03195724 0.061244432
0.0043529416 0.021522963 0.044103697 0.00294497 0.022417057 0.03644949 0.055175368 0.07182373
0.012664261 0.018540274 0.03612442 0.035249308 0.03015172 0.011578604 0.048717897 0.035207357
0.041945424 0.026304195 -0.024851844 0.06808942 0.019288052 0.0406405 0.0009906945 0.012433387
0.04331398 0.050372828 0.054271888 0.05258153 0.03233207 0.022149552 0.038238857 0.04993351
0.044203 0.027610501 0.046666067 0.016587522 0.02999325 0.015358163 0.06853546 0.026506575

hy/b f4 [17]
00000000: 26b1 d0ba b56e 4c3c 506a de3c a320 773c
00000010: 065c 433c c79f d33b c391 563b 79ab f33a
00000020: 0779 0f3b 9d16 9539 6c3e 5eb7 b779 3f3a
00000030: d310 54bb 9acc 35ba b954 e9b9 243e 7eba
00000040: d1e1 5d39
-0.0015921935 0.0124775665 0.027150303 0.015083465 0.011923796 0.006458256 0.003274069 0.0018590532
0.0021892206 0.00028436343 -1.3246765e-05 0.00073042087 -0.003235866 -0.000693509 -0.00044504346 -0.0009698591
0.00021160326

h1/0/b6 f4 [200]
00000000: 7902 e93b 2003 90bc cb5a 183d ea5e b43c
00000010: 78c1 a23c 3052 563c 5d47 323c b958 32bc
00000020: 0132 d33c 51e6 c9bb a5fb 4cbc 58cf 7dba
00000030: 01d2 be3c 8350 493b fc12 ca3c e6cd 71bc
00000040: 1db3 6e3b 8eae 5f3c 23e9 b03c cca1 9ebc
00000050: d155 f3bc 3220 723c 86de fabc 3544 693c
00000060: 8adc 6e3c 6b39 b8bc a9d9 95bc e36a f43b
00000070: e06e 13bd 6e74 143c f25f 6d3c 713e aa3c
00000080: fff8 693c ff49 04bd 1a9d 74bc a28e 5cbc
00000090: b3c7 1cbd fd0c c8bc 7809 133c 2f02 f239
000000a0: 9456 14bc 993e 8cbc 8c4f 68bc 83b6 46bc
000000b0: 367a b83b d2cb 8dbc 458c f63b f5f8 3f3c
000000c0: 4ac1 503c 88a7 733b c364 cdbc a43c b93b
000000d0: d4e8 87bc 77c6 d8bb 8f9b b83b ea22 de3c
000000e0: 1306 4a3c 3b28 b13c 3bf7 2b3b e771 e5bc
000000f0: e9cd 94bc d077 8d3c e679 ed3b 6556 a439
00000100: 486a 5abb f7c9 c2ba 178e da3b 3cb2 4fbc
00000110: 1813 fa37 89d1 4bbc 9ba3 c1ba fd11 9ebc
00000120: fc88 b93c 7cf4 62bc 22e9 0bbd bdf0 a0bc
00000130: b245 5b3c 97d3 863c a9c1 aa3c b81e d8bb
00000140: c570 303c 8b12 fa39 7b0a 48bc c293 abbc
00000150: 5374 813b ad02 033c d25a 65bc 9e53 13bc
00000160: 20b3 a73c da79 1b3b 974d 103c b620 0ebc
00000170: c405 febb b722 853b 6025 d13c 19b8 543c
00000180: 9017 f73c 9be8 7ebc 8f28 d63b 6c76 72bc
00000190: 968d 723c 585f a83c c643 093b 3042 2f3c
000001a0: 3b9f bcbb ba96 e73b 0f8f 9a3c 074c 9cbc
000001b0: 7b84 f139 42f1 803b 2d7c a0bc ea33 a2bc
000001c0: f22c 4f3b deda 83bc aef6 233c 8588 553a
000001d0: bb51 173b 6fb0 6abc ec7a 32bc 7bc3 7b3c
000001e0: 683d 273c cee8 a8bb 5f00 e3bc 05eb 35bb
000001f0: f2ae 37bb dbc0 9e3c 606e 51bb e706 3dba
00000200: 452d 9fbc 4f7c a4bb 61f0 e0bc fb3f 0c3c
00000210: ede2 b9bc 739a fabc 8ebd 803b 6a7d 923b
00000220: 9303 afbc e4b4 3f3c bd04 263c 738c 1bbc
00000230: ebf1 5cbb ad53 8d3b a144 b9bc e71b 49bc
00000240: a3f6 d4bc 12b4 f03c 5611 5c3c 6e4c 973c
00000250: 9d5d 99bc 9b01 db3c aaaa 29bc 04c2 d33c
00000260: 39ef 9bbc b985 3cbc e9af bfbc b75e 12bc
00000270: ae9a 50bc ab35 cd3b b137 98bc 75e2 8d3c
00000280: 141f 9c3c fc12 a7bc 27f9 073d 575b 433c
00000290: 9f77 513c 800a 0dbd 5d2c 173c 694c 4fbb
000002a0: 7b98 7b3b c271 aa3c b910 4f3c 3247 b4bc
000002b0: ff47 07bd 8ec9 6e3b 23a1 73bc dad5 573c
000002c0: c9bf 76bc 2486 2dbb b703 193b 8125 183d
000002d0: 3131 4ebb f86b ecbc 667b 523c 774d 53bc
000002e0: f4d5 2cbc 5974 933b 6e51 23bc 1efe 34bc
000002f0: c351 183d 4c30 383c e383 8bbc b417 89bc
00000300: 0875 1e3b cb87 e0bc e478 f33c 411c 583c
00000310: 747b c03c 51a2 7fbb 0c57 8fbc efee 94bb
0.0071108905 -0.017579615 0.037195962 0.022017915 0.019867644 0.013081118 0.010881272 -0.010885411
0.02578068 -0.006161489 -0.012511169 -0.00096820807 0.023293497 0.0030718155 0.024667256 -0.014758563
0.0036422678 0.013652457 0.021595543 -0.01936426 -0.029704006 0.014778184 -0.030623686 0.014237453
0.014578948 -0.022488317 -0.018292265 0.007459031 -0.03599441 0.009060962 0.014488207 0.020781728
0.014280557 -0.03229713 -0.014930034 -0.013461741 -0.038276386 -0.024420256 0.0089744255 0.00046159464
-0.009053845 -0.017119693 -0.014179122 -0.012128475 0.005629803 -0.017309103 0.0075240456 0.011717071
0.012741396 0.0037178714 -0.025072461 0.005652981 -0.016590513 -0.0066154557 0.0056337784 0.027116258
0.01233055 0.021625629 0.002623989 -0.028008414 -0.018164592 0.017269045 0.0072471974 0.00031344887
-0.0033327509 -0.0014861216 0.0066697705 -0.012676772 2.9811214e-05 -0.012440094 -0.001477349 -0.019295687
0.022648327 -0.013852235 -0.03415788 -0.019646043 0.013383316 0.016458316 0.020844297 -0.006595459
0.010769074 0.0004769753 -0.01220953 -0.02094448 0.0039506345 0.007996243 -0.013998704 -0.008992104
0.020471156 0.0023723752 0.008807561 -0.008674791 -0.007752152 0.004062976 0.025530517 0.012983345
0.030162603 -0.015558387 0.0065355967 -0.014798742 0.0148042645 0.020553276 0.0020944937 0.010696933
-0.0057562864 0.0070675286 0.018867044 -0.019079221 0.00046065808 0.00393501 -0.019590462 -0.019800145
0.0031612483 -0.016095575 0.0100075435 0.0008145648 0.0023089487 -0.014324292 -0.010893565 0.01536643
0.0102075115 -0.0051547056 -0.027710138 -0.002775849 -0.002802786 0.01937907 -0.0031956658 -0.00072108064
-0.019430766 -0.0050197016 -0.027458372 0.008560176 -0.022691214 -0.030591225 0.0039288467 0.004470517
-0.021364009 0.0117008425 0.010132966 -0.009493935 -0.003371353 0.0043129534 -0.022615733 -0.012274719
-0.025996512 0.02938274 0.013431868 0.018469062 -0.018721396 0.026734164 -0.010355631 0.02584935
-0.019034969 -0.011506491 -0.02339931 -0.008933715 -0.012732191 0.0062625012 -0.018581243 0.017319897
0.019057788 -0.020394795 0.033196595 0.011923633 0.012784868 -0.03443384 0.009226886 -0.0031631237
0.0038390446 0.020806197 0.012638264 -0.022006605 -0.033027645 0.0036436054 -0.014869961 0.013173545
-0.015060374 -0.002647766 0.0023348161 0.03714514 -0.0031462426 -0.028860077 0.012846803 -0.012896887
-0.010549057 0.0044999537 -0.009968145 -0.011046914 0.03718735 0.011241984 -0.017030662 -0.016734935
0.0024178643 -0.027408501 0.029720731 0.01319033 0.023496367 -0.003900666 -0.017497562 -0.0045450847

h1/0/w2 f4 [200, 27]
00000000: 244e 1f3e 4fe5 14be 6bf4 edbc 9e59 0d3f
00000010: 18d1 a43d 72e8 25be c0f6 b2ba e5e2 113e
00000020: f06f 2f3e 3030 973e 647a 613b d224 30be
00000030: 7320 82be 3cd4 12bc a67a c7be 7339 cfbe
00000040: 99e3 2e3e 3ba0 6ebe be0c 293e eb5f ac3c
00000050: 7638 93bb 4adc eebe 9a2b 943c 87de 98be
00000060: 463b 263e 94a8 563e 5537 f5bd 6f8a afbd
00000070: 947d 82bd dd8b d53d 49b3 01bd ad4c 8cbe
00000080: 5a0e 2bbe de23 da3d a4f2 97bb a6f6 103e
00000090: 6f81 8a3d e820 293c e755 ffbd 23e0 493e
000000a0: e4df 84ba 4b43 c33c 313a cebe 2dfa bdbd
000000b0: fb70 9abd bb2f 12be 3896 3d3d c195 1c3e
000000c0: 65e2 e7bd da43 ce3e 310b d83c dd43 1fbe
000000d0: dc16 5f3e 9b84 89bc cf06 87bc beda 5ebe
000000e0: 53b6 7ebe 3749 6f3e 6f1f 1bbe 3eba e3bc
000000f0: a956 44bd fade 3cbe 770a 8f3d 7761 833e
00000100: 8ea7 913e 7d11 c33d a231 af3d 9602 843e
00000110: e678 c5bd ef01 693e 6fda 9e3d 64b2 6a3d
00000120: 2943 c93e 9476 6e3e d876 4abd 9cf4 aa3c
00000130: 3e81 753e 1140 3d3c cce5 173e b6aa 723e
00000140: d997 9c3c 1521 eebd 8984 1d3e 7d94 5d3e
00000150: 44db e73e 49ea 1bbe 875c 36be ee4c 363e
00000160: 77ef 77be 5e3f eb3e b3b2 b1be 6f2c eabd
00000170: da67 6a3c a570 da3b 1e8d 123d e594 363e
00000180: 5a7f 07be 532c 5fbd fd64 38be bfb5 7dbb
00000190: 7a1a 893e 9cf0 9d3d 34d0 00bd e5be eb3c
000001a0: fae2 32bd 0c74 393e ba09 d7bd feeb d9bd
000001b0: 98bb 693e 37c4 7fbb 8b2e 7f3c 384e 983d
000001c0: 17be 96be 0a9c 4fbe 2ecf 123e 7fb1 d93c
000001d0: aab2 f0bd ec50 b5bc 1b82 f1bd 51f8 163f
000001e0: 2b02 533e f8f8 ffbc a952 f9bc 913a 87be
000001f0: 3733 343f a6f6 f4bd e0d8 f63c 2412 6fbe
00000200: e322 0b3e 4c66 8f3d 00ce b0bd 51e7 273e
00000210: 48c4 8fbd e8cf 51be 109b b9bd 9d86 443e
00000220: f9c1 11be a76b 3b3e 6dd4 45bd 8692 11bc
00000230: e34b c9be a4f4 3ebd 1bdf b4be ee9d 54bd
00000240: b6e2 bc3c 49df e6bd ceae 8cbe 681e ee3d
00000250: 4964 873e 45bc 16bd fa22 733e a9d9 5c3e
00000260: 8cc7 afbe fc00 e23e 29bc 45be 86c4 2d3e
00000270: 6f6f febc c1ec e0bd 1b44 91bd de5d 7b3d
00000280: 0ea9 d2bd 2dc5 5bbd 2f8d 19bf 0118 abbc
00000290: 5a53 5e3d 3a1f 1cbd fa34 ccbc f3e8 093d
000002a0: 3be5 edbb 48ae 313d bfc7 093e ca38 063e
000002b0: 27af 27bd 602c 67bd fc66 083e af77 b6bd
000002c0: bf43 c3bd 71d8 313e 6909 26be f0b9 b4bd
000002d0: 4248 823d 84df 513e bea3 c73d 974d c53c
000002e0: e6b9 0fbd 3ba1 cabd e0ff 6e3e 179b 263e
000002f0: 27de 753e 148d 883d 2e71 e23c 9639 223e
00000300: a5d4 11bd d758 e03d 910e 523e 8e98 063e
00000310: 11a7 e4bd 20b5 273d 6eda 0fbe 2fba c13e
00000320: 446c b6be 6d30 813c 18c1 86bd 53d1 83be
00000330: c64f 293e 3c81 0abe e436 243d f808 123e
00000340: 20a9 953e f789 bb3d c19b 803d 5a12 15be
00000350: 9272 a1be fc9e 45be cff3 81bc 2504 bc3e
00000360: 61d9 c33e e92c de3a ca2c 7f3e a72d bebd
00000370: b87c d73c 5d5b d33d a4a4 713d 6f5c 7e3e
00000380: e84d 31be 4841 4abe 3556 173e c41c 86be
00000390: c3ba 41be 313b 843c c59f 32be 349d bbbc
000003a0: 2c7f 2e3e ad48 fdbb 0f84 a0be 60a3 b93e
000003b0: 62ab 2e3e 72b7 853e e1c4 a03d 2c68 b13e
000003c0: df17 eb3d bc73 c63d 55cf f63e 2970 e43d
000003d0: 2c6e e2be 4c5c eebd 9653 06be 2598 13be
000003e0: 6a04 b3be 08f9 f23d 7504 9c3d 4b06 d93c
000003f0: dccd 273d 96e9 673d 6c4f 50bc cb7f f43e
0.15557152 -0.145406 -0.029047212 0.5521487 0.08047694 -0.16201952 -0.001365386 0.1424671
0.17132545 0.29528952 0.0034405226 -0.17201546 -0.25415382 -0.008961733 -0.3896076 -0.40473518
0.17079009 -0.2330331 0.16508767 0.021041831 -0.0044928147 -0.46652442 0.018087197 -0.29857275
0.16233549 0.20962745 -0.11973444 -0.08571326 -0.063716084 0.104270674 -0.03166512 -0.2740225
-0.16704693 0.106513724 -0.0046370793 0.14156589 0.06762969 0.010322787 -0.124675564 0.19714408
-0.0010137525 0.023835799 -0.40278772 -0.09276233 -0.075410806 -0.1427602 0.046285838 0.15291502
-0.11322478 0.40286142 0.026372524 -0.15553232 0.21786064 -0.016786864 -0.016482739 -0.21763131
-0.24874239 0.23367773 -0.1514871 -0.027798768 -0.047934208 -0.18444434 0.06984418 0.25660297
0.28448147 0.0952482 0.085543886 0.25783223 -0.096422 0.22754644 0.07756507 0.057299033
0.39309052 0.23287421 -0.049429744 0.020868592 0.23975083 0.011550919 0.14833754 0.23697934
0.019115375 -0.11627404 0.1538259 0.21638675 0.45284474 -0.15226091 -0.17808734 0.17802784
-0.24212442 0.45946783 -0.3470665 -0.11434256 0.014306987 0.0066662603 0.03577911 0.17830236
-0.13232175 -0.05448563 -0.18007274 -0.0038713065 0.26778013 0.07711908 -0.031448558 0.028777549
-0.043673493 0.18110675 -0.10499902 -0.10640715 0.22825468 -0.0039026865 0.015575062 0.07436794
-0.29441902 -0.20274368 0.14336845 0.026573895 -0.117528275 -0.022133313 -0.11792394 0.5897265
0.20606296 -0.031246647 -0.030434923 -0.2641187 0.7039065 -0.11961107 0.030132711 -0.23346764
0.13587527 0.070019335 -0.086330414 0.16396834 -0.070198596 -0.20489466 -0.09062779 0.19191976
-0.14234151 0.18302785 -0.048298288 -0.008885032 -0.3931571 -0.046620026 -0.35326466 -0.051908426
0.023057323 -0.11273057 -0.27477115 0.11626893 0.264437 -0.03680064 0.23743811 0.21567406
-0.3433193 0.44141376 -0.19310059 0.16969499 -0.031058995 -0.10982657 -0.07093068 0.061368816
-0.10286151 -0.05365484 -0.59981054 -0.02088547 0.05427871 -0.038115717 -0.024927605 0.033669423
-0.0072599924 0.0433791 0.13455103 0.13107601 -0.040938523 -0.056438804 0.13320535 -0.089095466
-0.09534406 0.17367722 -0.16214527 -0.08824527 0.06361438 0.2049542 0.09748028 0.02408485
-0.035089396 -0.098940335 0.23339796 0.162701 0.24010526 0.066675335 0.027641859 0.1584228
-0.035603184 0.10954445 0.20513369 0.13144132 -0.11164678 0.04094422 -0.14048168 0.3783736
-0.35629475 0.015770162 -0.065797985 -0.2574564 0.16534337 -0.13525862 0.04009141 0.14261234
0.29230595 0.09157174 0.06279708 -0.14557782 -0.31532723 -0.19298929 -0.015863327 0.36721912
0.38251784 0.001695064 0.2491943 -0.09286051 0.026304588 0.103201605 0.058994904 0.24839948
-0.17314875 -0.19751465 0.14778979 -0.2619382 -0.189189 0.016141506 -0.1744376 -0.022902109
0.170407 -0.007729611 -0.31350753 0.36257458 0.17057565 0.2611652 0.07850052 0.3464979
0.114791624 0.09690043 0.48205057 0.11154205 -0.4422468 -0.11638698 -0.13117823 -0.14413507
-0.34964305 0.11863905 0.076180376 0.026492259 0.040967807 0.05661925 -0.012714248 0.47753748

h1/0/w5 f4 [200, 200]
00000000: 3318 0ebd c867 c4bd a4bb e2bd 3bac bdbc
00000010: 5c58 cbbd af2d 293b 9962 16be 563e 80bd
00000020: 2f9a b03d d469 a6bd d85e 773d 7d6c 57bd
00000030: 7f93 18bd 6209 cbbc c9dc 253d 6706 d0bc
00000040: 7984 47be 70c3 5c3d 9883 8ebd bbd5 3fbc
00000050: f980 f9bc 53ae f73d 08d2 a0bb ba39 a3bd
00000060: ca5e 16bd bea1 cd3b 8e24 bdbd f7fc 023d
00000070: d38e f9bd 74b9 beba 65b7 1e3e 360b abbc
00000080: 3420 353b dbfe 91bd 68ab 71bd ca51 ddbd
00000090: c7ca 9dbd 431f cdbd 69de f1bc 9805 a13d
000000a0: d4a1 81bd 1a9f 44bd 7471 bfbd 50c8 dcbd
000000b0: 0714 e53d 72ec c0ba 2619 f1bd 9d93 c2bd
000000c0: 6c34 053e 6670 4a3c cf0a 95bd 7d24 43bd
000000d0: e398 83bb a571 c03d 342c fb3c ef8d 98bd
000000e0: 20f7 213d c22d 393e b646 6cbe 3ca1 0cbd
000000f0: c6a3 883d ff1e d63d c17b c23d cf89 dd3d
00000100: bf5a 0e3e f28e 0e3e 08d1 2cbd 24bf 383d
00000110: 4d12 c63d 4f9a e73d a874 d33d 8feb 6cbd
00000120: 8167 133e 526c b13c bde5 6c3c 1661 b03c
00000130: e905 043d 2517 79bd 8791 4d3d 7879 4b3e
00000140: 27b7 04be ede1 013d 7e3f 7c3d 2e84 a63d
00000150: b387 19be 0317 03be a7cf e53d 708c 9c3d
00000160: b069 233d bb4b d8bd e322 923c 16d6 313e
00000170: fcb8 82bc cf0d c13b 9c48 f2bc f09d b13d
00000180: 4a9f dcbd a0ae 153d 2509 43be 547a a13c
00000190: 8981 0dbd 49ab 003e 51f7 1ebd 145c 96bd
000001a0: be7c 26bd 2c43 04bc 3e37 803d 7e33 45bd
000001b0: fb08 8bbd 7074 123e 8420 13bd 7c11 333c
000001c0: 0b97 cebc 534c 0dbd a064 253d a453 a73d
000001d0: 85ca 2b3d b206 873d 05d3 dabc 9bf6 093e
000001e0: a844 82bd 28ff 803b a7b6 7fbd e149 8abc
000001f0: 7d2a 0bbd e50e 1b3d 6f51 b33a 2776 243d
00000200: 227a 573d aa91 a83d 61c1 a5bc f16f 5ebc
00000210: fe74 3abe 4bec efbc 172f 47bd 4c11 a9bb
00000220: 16fc 85bd 0c69 9a3d 3292 17bb bb74 5ebd
00000230: 6e4a 25be aab5 2c3c bf42 aebb 1a28 2bbe
00000240: 153b 9b3c c878 c43c 43d9 48bc 0596 77bd
00000250: 0321 233e 531a 00be bef9 1a3d e040 51bc
00000260: c09d a03b d030 193e c285 8f3c 6ee9 e13c
00000270: 9456 19bd 43ee 52bd 2220 c43c 2a44 2bbd
00000280: 67b4 3f3e dac3 8bbd d979 733d fd3e 053c
00000290: 264a 833c 516e f0bd eeb2 11bc 2d6d d23d
000002a0: abf8 e73d 409f 9c3d 176d 883c cc0d 473d
000002b0: 9009 753d 394c 433c 4b4f 0a3d a6b6 72bc
000002c0: b4af df3d 4a64 06be abf2 48be f2d0 783a
000002d0: 5e71 323d b0a9 2a3c 89f8 d33b 1707 003d
000002e0: 8624 18bb d92e 10be 8c2a c0ba fd85 64bd
000002f0: 6931 bc3d 49a2 15be 3f0c 4c3d 5163 1e3e
00000300: 85f3 78bc d22b 8ebd c226 cf3d 5695 a13d
00000310: 1802 2ebd 27a1 043e 99f9 31bd 5759 07bd
00000320: 8d86 32bd dbe0 4abd 783c 4dbd fec7 6f3d
00000330: 0d55 063d 8d6e 6bbd 37da 65bd f654 2abd
00000340: e273 13bd c0e9 533d b029 ecbc fc61 a63d
00000350: e61c 073e fe97 a23d 84ce 80bd b297 f23d
00000360: 31d2 7abe e006 1abd 54a3 99bb 46de 3cbe
00000370: 4cae 493b d7ec e1bb 9503 cebc adbb ecbd
00000380: cdf1 fabc 0362 d6bc 7cd3 2bbd c03f 7e3b
00000390: c2e8 e23b 61e4 fd3c 51e8 123e c89a 6fbc
000003a0: 02f6 f0bd 974d 1f3d 54bd d23d 2e21 f23d
000003b0: 93b7 923d e767 513d 5978 c23c f5c6 c0bd
000003c0: 8b94 14be 0c0e 493e 598f 02be 56b8 67bd
000003d0: 2d3b 2dbc b466 623d 5516 8e3d 0b2f dc3d
000003e0: 4d7d 81bd 7510 97bd ba95 253e 6fdd 353d
000003f0: ef8f 93bd 1ad2 e33d 13a8 b2bd 65c2 003e
-0.034691047 -0.09590107 -0.11070946 -0.023153415 -0.099289626 0.0025814583 -0.1468605 -0.0626189
0.08623158 -0.08125654 0.060393184 -0.052593697 -0.03725004 -0.024784748 0.04049376 -0.025393678
-0.19484128 0.05389732 -0.06958693 -0.011708672 -0.030457007 0.120937966 -0.00490785 -0.07969995
-0.03671149 0.0062753847 -0.09235488 0.031979527 -0.12185445 -0.0014551119 0.15499647 -0.02087937
0.0027637603 -0.07128688 -0.059001356 -0.10806616 -0.07704692 -0.10015728 -0.029524999 0.07862395
-0.063296944 -0.048003294 -0.09347811 -0.10780394 0.111854605 -0.0014718904 -0.11772375 -0.09500811
0.13008279 0.012355899 -0.07277452 -0.04764222 -0.0040160283 0.09396676 0.030660726 -0.07448947
0.039542317 0.18083861 -0.23073849 -0.034333453 0.06671862 0.10455131 0.094962604 0.108173005
0.13901804 0.13921717 -0.042191535 0.04510416 0.09671459 0.11308729 0.10324985 -0.057841834
0.14394952 0.021658096 0.014459071 0.02153067 0.0322322 -0.060813088 0.050187614 0.19870555
-0.12960492 0.0317096 0.06158399 0.0813068 -0.14993171 -0.12801747 0.11221247 0.07643974
0.039895713 -0.105613194 0.0178389 0.17366824 -0.015957348 0.0058915387 -0.029575638 0.08672702
-0.107725695 0.03654349 -0.19046457 0.01971165 -0.034547362 0.1256534 -0.038810078 -0.07341781
-0.040646307 -0.008072656 0.062605366 -0.04814481 -0.06788822 0.1430223 -0.03591968 0.010929462
-0.025218507 -0.034496617 0.040379167 0.0817025 0.041941185 0.06593074 -0.02671195 0.13472979
-0.063607514 0.003936667 -0.06243005 -0.016880931 -0.033976067 0.037856 0.0013680885 0.04015174
0.05260671 0.08230908 -0.020233812 -0.013576494 -0.18208691 -0.029287478 -0.048628893 -0.0051595327
-0.06542222 0.07539567 -0.002312791 -0.05431054 -0.16141674 0.010541359 -0.0053180153 -0.16714516
0.018949071 0.023983374 -0.0122588305 -0.060445804 0.15930562 -0.12510042 0.03783583 -0.012771815
0.0049016178 0.14960027 0.017519835 0.027577128 -0.037436083 -0.051496755 0.023941103 -0.041813053
0.18721162 -0.06824465 0.059442375 0.008132693 0.016026568 -0.11739791 -0.008892758 0.1027473
0.113267265 0.07647562 0.01665358 0.048597142 0.059823573 0.011920028 0.033767026 -0.014814055
0.109221846 -0.13124195 -0.1962382 0.00094915845 0.043565147 0.010416433 0.0064688367 0.03125676
-0.002321513 -0.14080371 -0.0014661117 -0.055791844 0.09189112 -0.14612688 0.049816366 0.15467574
-0.015194778 -0.06941952 0.10114814 0.07889812 -0.042482466 0.129521 -0.043450925 -0.033044185
-0.04358535 -0.049530845 -0.050106496 0.058540337 0.032795954 -0.057478476 -0.05611631 -0.04158493
-0.035999186 0.051736593 -0.028828472 0.08124158 0.13194618 0.079391465 -0.0628939 0.1184534
-0.24494244 -0.037604213 -0.0046886597 -0.18444166 0.0030774055 -0.0068946886 -0.025148192 -0.11559234
-0.030632878 -0.026169783 -0.041949734 0.0038795322 0.0069247195 0.030992689 0.14346434 -0.014624305
-0.11765672 0.038892355 0.10290018 0.11822735 0.0716392 0.05112448 0.023739027 -0.09412948
-0.1450979 0.19634265 -0.12749995 -0.05657228 -0.010573191 0.055273727 0.06937853 0.1075116
-0.06322727 -0.07376186 0.16170397 0.04440063 -0.072051875 0.11124058 -0.08723464 0.12574156

h1/0/b2 f4 [200]
00000000: 7902 e93b 2003 90bc cb5a 183d ea5e b43c
00000010: 78c1 a23c 3052 563c 5d47 323c b958 32bc
00000020: 0132 d33c 51e6 c9bb a5fb 4cbc 58cf 7dba
00000030: 01d2 be3c 8350 493b fc12 ca3c e6cd 71bc
00000040: 1db3 6e3b 8eae 5f3c 23e9 b03c cca1 9ebc
00000050: d155 f3bc 3220 723c 86de fabc 3544 693c
00000060: 8adc 6e3c 6b39 b8bc a9d9 95bc e36a f43b
00000070: e06e 13bd 6e74 143c f25f 6d3c 713e aa3c
00000080: fff8 693c ff49 04bd 1a9d 74bc a28e 5cbc
00000090: b3c7 1cbd fd0c c8bc 7809 133c 2f02 f239
000000a0: 9456 14bc 993e 8cbc 8c4f 68bc 83b6 46bc
000000b0: 367a b83b d2cb 8dbc 458c f63b f5f8 3f3c
000000c0: 4ac1 503c 88a7 733b c364 cdbc a43c b93b
000000d0: d4e8 87bc 77c6 d8bb 8f9b b83b ea22 de3c
000000e0: 1306 4a3c 3b28 b13c 3bf7 2b3b e771 e5bc
000000f0: e9cd 94bc d077 8d3c e679 ed3b 6556 a439
00000100: 486a 5abb f7c9 c2ba 178e da3b 3cb2 4fbc
00000110: 1813 fa37 89d1 4bbc 9ba3 c1ba fd11 9ebc
00000120: fc88 b93c 7cf4 62bc 22e9 0bbd bdf0 a0bc
00000130: b245 5b3c 97d3 863c a9c1 aa3c b81e d8bb
00000140: c570 303c 8b12 fa39 7b0a 48bc c293 abbc
00000150: 5374 813b ad02 033c d25a 65bc 9e53 13bc
00000160: 20b3 a73c da79 1b3b 974d 103c b620 0ebc
00000170: c405 febb b722 853b 6025 d13c 19b8 543c
00000180: 9017 f73c 9be8 7ebc 8f28 d63b 6c76 72bc
00000190: 968d 723c 585f a83c c643 093b 3042 2f3c
000001a0: 3b9f bcbb ba96 e73b 0f8f 9a3c 074c 9cbc
000001b0: 7b84 f139 42f1 803b 2d7c a0bc ea33 a2bc
000001c0: f22c 4f3b deda 83bc aef6 233c 8588 553a
000001d0: bb51 173b 6fb0 6abc ec7a 32bc 7bc3 7b3c
000001e0: 683d 273c cee8 a8bb 5f00 e3bc 05eb 35bb
000001f0: f2ae 37bb dbc0 9e3c 606e 51bb e706 3dba
00000200: 452d 9fbc 4f7c a4bb 61f0 e0bc fb3f 0c3c
00000210: ede2 b9bc 739a fabc 8ebd 803b 6a7d 923b
00000220: 9303 afbc e4b4 3f3c bd04 263c 738c 1bbc
00000230: ebf1 5cbb ad53 8d3b a144 b9bc e71b 49bc
00000240: a3f6 d4bc 12b4 f03c 5611 5c3c 6e4c 973c
00000250: 9d5d 99bc 9b01 db3c aaaa 29bc 04c2 d33c
00000260: 39ef 9bbc b985 3cbc e9af bfbc b75e 12bc
00000270: ae9a 50bc ab35 cd3b b137 98bc 75e2 8d3c
00000280: 141f 9c3c fc12 a7bc 27f9 073d 575b 433c
00000290: 9f77 513c 800a 0dbd 5d2c 173c 694c 4fbb
000002a0: 7b98 7b3b c271 aa3c b910 4f3c 3247 b4bc
000002b0: ff47 07bd 8ec9 6e3b 23a1 73bc dad5 573c
000002c0: c9bf 76bc 2486 2dbb b703 193b 8125 183d
000002d0: 3131 4ebb f86b ecbc 667b 523c 774d 53bc
000002e0: f4d5 2cbc 5974 933b 6e51 23bc 1efe 34bc
000002f0: c351 183d 4c30 383c e383 8bbc b417 89bc
00000300: 0875 1e3b cb87 e0bc e478 f33c 411c 583c
00000310: 747b c03c 51a2 7fbb 0c57 8fbc efee 94bb
0.0071108905 -0.017579615 0.037195962 0.022017915 0.019867644 0.013081118 0.010881272 -0.010885411
0.02578068 -0.006161489 -0.012511169 -0.00096820807 0.023293497 0.0030718155 0.024667256 -0.014758563
0.0036422678 0.013652457 0.021595543 -0.01936426 -0.029704006 0.014778184 -0.030623686 0.014237453
0.014578948 -0.022488317 -0.018292265 0.007459031 -0.03599441 0.009060962 0.014488207 0.020781728
0.014280557 -0.03229713 -0.014930034 -0.013461741 -0.038276386 -0.024420256 0.0089744255 0.00046159464
-0.009053845 -0.017119693 -0.014179122 -0.012128475 0.005629803 -0.017309103 0.0075240456 0.011717071
0.012741396 0.0037178714 -0.025072461 0.005652981 -0.016590513 -0.0066154557 0.0056337784 0.027116258
0.01233055 0.021625629 0.002623989 -0.028008414 -0.018164592 0.017269045 0.0072471974 0.00031344887
-0.0033327509 -0.0014861216 0.0066697705 -0.012676772 2.9811214e-05 -0.012440094 -0.001477349 -0.019295687
0.022648327 -0.013852235 -0.03415788 -0.019646043 0.013383316 0.016458316 0.020844297 -0.006595459
0.010769074 0.0004769753 -0.01220953 -0.02094448 0.0039506345 0.007996243 -0.013998704 -0.008992104
0.020471156 0.0023723752 0.008807561 -0.008674791 -0.007752152 0.004062976 0.025530517 0.012983345
0.030162603 -0.015558387 0.0065355967 -0.014798742 0.0148042645 0.020553276 0.0020944937 0.010696933
-0.0057562864 0.0070675286 0.018867044 -0.019079221 0.00046065808 0.00393501 -0.019590462 -0.019800145
0.0031612483 -0.016095575 0.0100075435 0.0008145648 0.0023089487 -0.014324292 -0.010893565 0.01536643
0.0102075115 -0.0051547056 -0.027710138 -0.002775849 -0.002802786 0.01937907 -0.0031956658 -0.00072108064
-0.019430766 -0.0050197016 -0.027458372 0.008560176 -0.022691214 -0.030591225 0.0039288467 0.004470517
-0.021364009 0.0117008425 0.010132966 -0.009493935 -0.003371353 0.0043129534 -0.022615733 -0.012274719
-0.025996512 0.02938274 0.013431868 0.018469062 -0.018721396 0.026734164 -0.010355631 0.02584935
-0.019034969 -0.011506491 -0.02339931 -0.008933715 -0.012732191 0.0062625012 -0.018581243 0.017319897
0.019057788 -0.020394795 0.033196595 0.011923633 0.012784868 -0.03443384 0.009226886 -0.0031631237
0.0038390446 0.020806197 0.012638264 -0.022006605 -0.033027645 0.0036436054 -0.014869961 0.013173545
-0.015060374 -0.002647766 0.0023348161 0.03714514 -0.0031462426 -0.028860077 0.012846803 -0.012896887
-0.010549057 0.0044999537 -0.009968145 -0.011046914 0.03718735 0.011241984 -0.017030662 -0.016734935
0.0024178643 -0.027408501 0.029720731 0.01319033 0.023496367 -0.003900666 -0.017497562 -0.0045450847

h1/0/w4 f4 [200, 200]
00000000: ac33 2fbe ccb8 8cbd 46c1 dcbb eded abbd
00000010: a4ce 953d 19d7 c33d 1622 2a3c cbe9 da3c
00000020: 6638 963d 8272 50bd 48c3 183e c157 0fbd
00000030: b083 74be 6786 ef3c f4c9 75bd 1a08 01be
00000040: 61c9 32be 4e4b 39bd 8af5 743d 6320 48bd
00000050: b6e7 6c3c 1e68 b83d 0689 543d 47e1 843d
00000060: bb5b 3c3e 09ea 9e3d b950 083d 0007 7b3c
00000070: d67d 8ebd ab7c d63c 2646 b3bd e437 013c
00000080: 6455 51bd df87 2b3c 1aed 033e c9f0 603c
00000090: c764 a1bd 074e fabd 8688 283e 3afc 37be
000000a0: ebf7 283d 2199 d93d 057a 0bbc da70 bc3d
000000b0: 0a8d 89bb 7d92 13be 5ead 1a3e e82b 7cbb
000000c0: 720f 36bd 64bc 8e3d 0e1f a7bc f156 12be
000000d0: 859e 64bd 89a6 19be 9259 de3c 679f bdbd
000000e0: 8005 8ebc f436 eb3c a537 a5bd cb7c 043b
000000f0: 2ce8 cf3d 7386 393d ff0b 0b3d acd8 bb3c
00000100: 7682 e23d 4830 093d d9ed 34be d5db 4cbd
00000110: 3b64 7dbd 63b6 1e3e d920 6f3d 1ec6 26bd
00000120: c907 2f3d 4e23 00be 694c c7bd 8b91 46bd
00000130: 1207 d539 4706 05be 58ce 603e 5014 2dbe
00000140: 7859 73bd 1939 203d 95bd 3b3e 3e0f 693d
00000150: e909 65bd 890a 053e de1d 27be 01b9 523d
00000160: 2623 c2bd 6c0b 97bc 0f90 933b f03d a83d
00000170: c237 8c3d c95a d0bc 7201 5cbc 5ca1 cfbd
00000180: 8524 c43d 55c1 d2bd 8bd1 2a3d 879b 16be
00000190: fb5d 1a3e ae14 383d 6a72 5b3d de3c 24be
000001a0: 86a1 283d 425c 3f3b 861e a83b a696 2e3e
000001b0: 766c cd3b 421a 653e a721 bebd c89c a8bd
000001c0: 4ae5 55bd ff91 32be ee16 6b3c 38a6 e8bd
000001d0: abda b0bc 33db 213e 0063 0bbe a9de 683d
000001e0: 0ab2 e23c 9fda 913c 5a46 e4bd a9c8 36bd
000001f0: c612 9a3d b97b 8d3c 2296 ec3c 9394 e13d
00000200: 44e0 5bbe 184c fa3d d09e 14bd 110a 973d
00000210: 4259 abbc 2a2b 483d c382 533d 7016 28be
00000220: b96d 32bd 09fd a63d db93 7e3d 4b71 f63d
00000230: 383f 423e dae4 943d 9b49 fe3d aff6 863d
00000240: bbc7 cb3d 8245 57bc 04dd 44bd ddc6 d93d
00000250: 37b9 f53d 36b4 e0bd 06ad 04be 2995 ca3d
00000260: c2f6 66bd d13f c33c b271 bcbd 9901 40be
00000270: c559 82bd 2b03 4f3e 21ad f8bd d873 02be
00000280: d96f 193e da7a 0dbe 300a 4dbc 5ff0 a13d
00000290: d70f 34be 00bc fdbc 69ff fd3d fec3 3dbd
000002a0: 65d4 813d 2c8f d13c d823 1c3d c412 fe3c
000002b0: 8a87 46be 0dc7 56be 5c2c c7bd 0b90 183e
000002c0: 27cd 353d 50eb 933d 3035 3f3e 4988 3b3d
000002d0: 7488 893c 0a2b afbd 4c99 983d 6c2d 81bd
000002e0: 6b05 a8bd 5a60 8c3d a89e c7bd fbe0 0abe
000002f0: 2f3a 443e 1553 c53d 27e3 d6bb ad58 543e
00000300: f986 a83d c512 d3bd 58d9 c0bd 3997 063e
00000310: 51c4 aabc 8a30 edbd 108d 9e3d 8869 4bbd
00000320: b763 9abb 10f6 8abd 647a 08be 40da a53a
00000330: dca2 5c3e 5b8d e4bd 5452 363c d2c5 a0bd
00000340: 206f 0d3d bbb6 dcbd 2cb1 483b 925a 43bd
00000350: e504 64bc 2113 0cbd 2c70 bc3d 5ec1 05be
00000360: 4fe9 2bbd f06f 6d3b e871 9dbd e2c1 5a3c
00000370: 2a8f 9e39 d8b2 143d 57bb 483c 9a4b 5b3c
00000380: bbb1 1c3e 15a1 243e 5bf8 943d 5305 97bd
00000390: 97e8 303d 3d7e d13c fda6 7b3d 4f9f bb3d
000003a0: c808 293d 090e 31be 2ab1 233e a364 91bc
000003b0: 42c7 4d3d 8590 253e 6a48 5dbd 8fc7 79bd
000003c0: c290 91bd 3ca9 f7bd b242 25bc 2af5 c43b
000003d0: 83ef 0cbd fa29 4fbd eeaf 5d3d 63db 9cbd
000003e0: 5063 c4bd e14e 2dbd cca8 0fbc 7771 a23d
000003f0: 5a0a 983c 458d f5bc 2053 60bd 2376 ac3c
-0.17109555 -0.06871185 -0.006736907 -0.0839499 0.07314804 0.09562511 0.010384103 0.02672281
0.07334976 -0.050890453 0.14918244 -0.034995798 -0.2387836 0.029238893 -0.06000705 -0.12600747
-0.17459632 -0.04523783 0.059804477 -0.04885901 0.014459541 0.09004234 0.05188849 0.06488281
0.18394367 0.077594824 0.033280108 0.015321493 -0.06957595 0.026182493 -0.08753614 0.0078868605
-0.051106825 0.010469406 0.12883416 0.013729283 -0.0788055 -0.12221914 0.1645833 -0.1796731
0.041252058 0.1062491 -0.008512978 0.09201212 -0.0041977214 -0.1441135 0.15105197 -0.0038478319
-0.044448324 0.069695264 -0.02040055 -0.14290978 -0.05581524 -0.15004934 0.02714232 -0.09258919
-0.017336607 0.028712727 -0.08067254 0.0020215984 0.10151705 0.045294236 0.033946987 0.022930466
0.1106004 0.03349331 -0.17668857 -0.050014336 -0.061863165 0.15499263 0.058380935 -0.040716283
0.042732034 -0.12513468 -0.09731371 -0.048478644 0.00040631794 -0.12990676 0.21953714 -0.1690228
-0.059411496 0.039116953 0.18334039 0.0568993 -0.055917654 0.129923 -0.16319987 0.051445965
-0.0947936 -0.018438064 0.004503257 0.08214939 0.068465725 -0.025433915 -0.013428079 -0.10138199
0.09577278 -0.102907814 0.041703742 -0.14707766 0.15074913 0.044941597 0.05357591 -0.16038844
0.041169666 0.0029199277 0.005130592 0.17049655 0.006269033 0.22373298 -0.092837624 -0.08233029
-0.05222062 -0.17438506 0.014348729 -0.11359829 -0.021588644 0.15806274 -0.13611984 0.05685297
0.027672786 0.017804442 -0.11146231 -0.04462496 0.07523112 0.01727091 0.028880183 0.110146664
-0.2147227 0.12221545 -0.036284268 0.07374967 -0.020916585 0.04886929 0.051638376 -0.16414809
-0.04356167 0.081537314 0.062152725 0.12033328 0.18969429 0.072702125 0.12416383 0.0659002
0.09950205 -0.013139131 -0.04806234 0.10633633 0.119982176 -0.109718725 -0.12956628 0.09891731
-0.05638767 0.023834141 -0.09201373 -0.1875061 -0.063647784 0.20216052 -0.12142397 -0.12739503
0.14984073 -0.13816395 -0.012514636 0.07907175 -0.17584167 -0.030973434 0.12402231 -0.04632949
0.06339339 0.025580965 0.03812012 0.031014808 -0.19387642 -0.2097437 -0.09725258 0.14898698
0.0443851 0.07222617 0.18672633 0.04578427 0.016788699 -0.08553131 0.07451114 -0.06307492
-0.082041584 0.06854315 -0.09747058 -0.13562386 0.1916282 0.09634987 -0.0065578404 0.20736952
0.08228869 -0.103063144 -0.09416455 0.13143624 -0.020845564 -0.11581524 0.07741749 -0.04966119
-0.004711594 -0.06785214 -0.13327938 0.0012653545 0.21546501 -0.11159774 0.011128027 -0.07850231
0.034529805 -0.107770406 0.003062318 -0.047693796 -0.013917183 -0.03419793 0.092010826 -0.13062045
-0.041970547 0.003623005 -0.076877415 0.013351889 0.00030242774 0.03630337 0.012251697 0.013384724
0.15302174 0.16077073 0.072739325 -0.073740624 0.043190565 0.02557289 0.06143855 0.09161245
0.04126814 -0.1729051 0.15985551 -0.017748183 0.050238855 0.16168411 -0.054024138 -0.06098133
-0.071076885 -0.12092826 -0.010086702 0.006010671 -0.034408104 -0.05057714 0.054122858 -0.07659032
-0.09589255 -0.042311553 -0.008768272 0.07931798 0.018559624 -0.02997459 -0.054766774 0.021052426

h1/0/b7 f4 [200]
00000000: b505 593d 4ad1 033d 951e 353d 0843 543d
00000010: 15eb 133d b030 213d d03f 463d 0c5a 3a3d
00000020: b5bb 903d fb50 3d3d 340a 9a3d 4ec4 843d
00000030: b4d1 8d3d b736 593d a826 683d 141a 7b3d
00000040: 6426 1b3d 03ee 933d c206 4d3d c1ac 893d
00000050: a71d a73d 433c 523d ff3a 2e3d 4d41 4a3d
00000060: 1ef1 9a3d 03c8 fb3c 3e16 623d f2de 503d
00000070: 21e6 543d e6b5 413d b6d0 a13d ec73 b43d
00000080: 126f 0d3d 6686 343d 7e82 843d f1f3 073d
00000090: 6ad8 503d 59ef e43c 38a0 1b3d b706 3c3d
000000a0: 8392 943c ba83 863d 4d20 793d adee 863d
000000b0: 561a 453d 9dae 103d 7ab2 cc3c 7108 553d
000000c0: 0204 363d 3769 2e3d b7ca 4a3d c73d 973d
000000d0: 9e50 8c3d 2a75 773d a9d2 553d 399f c23c
000000e0: 7bd9 1d3d 9c49 2b3d da9a 583d bc6b 473d
000000f0: 707d b63d 2b23 943d 3153 783d ae7e 623d
00000100: 24fa 573d 2414 583d c685 803d 8436 6b3d
00000110: 632a 863d 735e 613d 495d 303d e854 523d
00000120: 882a a13d 877c 7c3d 19f8 4f3d 6e50 6a3d
00000130: c217 3e3d c41d 773d ebf7 a63d 3825 643d
00000140: 078d c53d 5488 713d 9941 a13d e5ee 183d
00000150: 28ee 983d 4a09 6d3d 32d5 673d dd93 613d
00000160: a8a1 763d 3bd6 083d 77c3 893d 0d54 913d
00000170: bd82 963d 1e58 213d e65d a43d 54af 703c
00000180: b835 743d 4179 863d a50a 983d 197f 8c3d
00000190: 08cf 793d 12ef 303d 2892 7b3d 5304 8a3d
000001a0: 9794 843d c361 4e3d 6fc1 703c ef0e 2b3d
000001b0: 39f7 963d 8797 803d cbe2 403d 3b0f 223d
000001c0: 5629 7f3d 0b1e 193d 29de 173d 908b 783d
000001d0: cdec 953d f55e 833d 6ed8 3b3d add2 633d
000001e0: 7928 3c3d 2666 203d 8717 143d b2d2 e23c
000001f0: c0bb 693d d20a 803d 633e 883d 9d5c dd3c
00000200: 78fc 2f3d abb3 b23d b10f 653d fa59 7c3d
00000210: 66de 3d3d 9105 1e3d 72fc 243d e91c 1d3d
00000220: e53d 5f3d bf4e 3d3d 425f e33c c186 223d
00000230: 8508 8e3d 21a5 883d f0f1 6f3d 4812 4e3d
00000240: 8f6f 663d 2c58 5f3d b723 143d 3716 833d
00000250: ca66 7f3d 7143 473d cd0c 403d 7352 1c3d
00000260: 8cc1 853d 51df 8f3d b0a2 8e3d df89 513d
00000270: 12a8 2e3d eb5a 923d f294 2a3d efc7 883d
00000280: 097f d03c 0d30 393d d72c a03d acbc 313d
00000290: 5f3e 613c 31e5 473d 1623 883d 0a3f 8e3d
000002a0: 9aad 6c3d 1108 063d 4fa5 f83c 20b9 5b3d
000002b0: 9a88 703d 5c4f 633d 0160 7c3d 1d5b 673d
000002c0: 2a2e 0c3d 4da4 7e3d 3adc 203d d0f5 963d
000002d0: 1d12 003d 6afa 323d 6d72 243d ac96 2c3d
000002e0: 22a3 453d 837b 793d 0e93 833d da61 903d
000002f0: 8254 6b3d 1c4c 093d a12c 623d fc83 643d
00000300: b356 7c3d eed7 493d 88db 513d 110b 823d
00000310: 62bb 603d 28fe 943d 482f 953d 523f 0239
0.05298396 0.032182015 0.04421862 0.05182174 0.036112864 0.039353073 0.0484007 0.04549603
0.07067052 0.046219807 0.07521477 0.06482755 0.06924763 0.053030696 0.05667749 0.061304167
0.03787841 0.072231315 0.050055273 0.06722403 0.081599526 0.051327 0.04253673 0.049378682
0.07565521 0.030735021 0.055196993 0.050993867 0.05197728 0.047292612 0.079011366 0.08811173
0.034529753 0.044073485 0.06470202 0.033191625 0.05098764 0.027946161 0.037994593 0.04590484
0.018136268 0.065680936 0.06082182 0.065884925 0.04812082 0.035322774 0.024987448 0.052010003
0.044437416 0.04258081 0.04950973 0.0738483 0.06851314 0.06041447 0.052202854 0.023757564
0.038537484 0.041818246 0.052882053 0.048686728 0.08910644 0.0723327 0.060626213 0.055296592
0.052728787 0.052753583 0.06275515 0.057425037 0.065510534 0.055021714 0.043057714 0.051350504
0.0786944 0.061642196 0.050773714 0.05720561 0.046409376 0.06033112 0.08152755 0.055699557
0.096460395 0.058967903 0.0787384 0.037337203 0.074673 0.057870187 0.056599803 0.055072654
0.06021276 0.03340743 0.06726735 0.070961095 0.07349155 0.039390676 0.08025722 0.014690239
0.059621543 0.06566096 0.07423905 0.068601795 0.060988456 0.043196745 0.061418682 0.06739106
0.06473654 0.0503862 0.014694556 0.04176229 0.07371373 0.062789015 0.047091287 0.039565306
0.06229528 0.037382167 0.037077103 0.060679972 0.07320557 0.06414596 0.0458607 0.055620838
0.045937035 0.039159916 0.03615525 0.027688358 0.057063818 0.06252064 0.06652524 0.0270217
0.042965382 0.08725675 0.055923168 0.061609246 0.046354674 0.038579527 0.040279813 0.03835765
0.054502387 0.046217676 0.027755383 0.039679293 0.06935219 0.06672121 0.05858034 0.050310403
0.056258734 0.054527447 0.036166873 0.064007215 0.062353887 0.0486483 0.046887208 0.038164567
0.06531057 0.07025016 0.06964624 0.051156875 0.042640753 0.071462475 0.04164595 0.06678759
0.0254512 0.04521184 0.078210525 0.043392822 0.013747781 0.04880256 0.06647317 0.069456175
0.057782747 0.032722536 0.030352263 0.053643346 0.058724023 0.055495605 0.061614994 0.056483377
0.034223713 0.06216841 0.039272524 0.07371104 0.031267274 0.043695845 0.040148187 0.04213588
0.04825128 0.060908806 0.06424533 0.07049914 0.05745364 0.03351985 0.055218343 0.055789933
0.06160612 0.049278192 0.051234752 0.06349767 0.054866202 0.07275039 0.07284409 0.00012421355

h1/0/b0 f4 [200]
00000000: 9e14 443d 2826 fc3c d753 1c3d a924 813d
00000010: 109d 3d3d a2c5 0e3d 665a 553d add3 373d
00000020: e94c 4f3d 4c5a 243d 1287 983d c36b 4c3d
00000030: 8c6c 8d3d dd98 613d acc0 5d3d 8992 553d
00000040: 5059 0f3d 70f8 983d b423 363d 461a 583d
00000050: 22ff 8a3d 7fb3 383d 43e5 ef3c 1d0a 5a3d
00000060: a9e2 883d cf4b 213d e5a7 393d f668 4f3d
00000070: a059 603d a161 5b3d ebac 953d 5dfb 803d
00000080: 9dce e23c 4e6a 333d 6cf5 783d 0328 ce3c
00000090: e6a9 4c3d 5258 e73c efdc 1a3d f947 303d
000000a0: 796c 823c 6fd4 a33d 1486 563d 9a42 5e3d
000000b0: 6a6d 273d 8fbf 71bb 84bb e43c ea23 3b3d
000000c0: cd66 1a3d a9d1 103d d079 4a3d 9a28 813d
000000d0: 8fee 883d e99f 643d 38f3 5b3d 90ee 383c
000000e0: 5e9b 0f3d e910 fb3c 85e0 3e3d 873b 3a3d
000000f0: d06f a53d b809 833d 6ccf 383d ad37 033d
00000100: 596f 213d 3491 263d 2fd5 773d 7dce 593d
00000110: eaf8 683d 8279 b73c 2122 af3c 5eea 273d
00000120: c298 823d 0309 883d 0a0d 373d b742 593d
00000130: e0d5 2f3d 9516 6f3d 3da5 ad3d a438 603d
00000140: e875 b33d 86ca 5d3d 4ad2 af3d 26fb de3c
00000150: 241a 873d 6d52 633d bb78 473d f38a 333d
00000160: 0886 473d 3298 1c3d 0ca0 7c3d 3a63 8e3d
00000170: 39d8 953d 5c12 143d f8fa 8f3d a864 ca3c
00000180: 2a46 3e3d dd78 733d 3eba af3d 42ac 963d
00000190: 5568 743d fcb3 1a3d 3da4 643d c81c 6b3d
000001a0: cc2d 803d 9612 273d 5af2 9a3c 2e4a 113d
000001b0: a5fd 803d 6a67 6e3d 29d7 313d 9ece 193d
000001c0: 80fa 7b3d 0206 fe3c 05d9 0a3d 6b1d 6f3d
000001d0: 7a2e 803d 76b9 693d f508 2e3d 8cda 8c3d
000001e0: aa0c 2c3d ddb7 9b3c 96aa e13c b237 103d
000001f0: d2d1 523d 72db 703d 9048 7c3d 2bd9 c33c
00000200: da25 283d 4f27 b93d 9846 4b3d 5e74 6c3d
00000210: 2790 5e3d 2264 023d 679e 3b3d 94d3 403d
00000220: 6e1e 5b3d 6a5f 093d b3ea e43c 335c b23c
00000230: 1f68 933d 9d7e 4e3d 98f8 5c3d 0674 1e3d
00000240: dafc 4b3d f0df 373d 8f3d 1d3d fbcb 5a3d
00000250: eb4e 543d d46e 463d 88cb 313d 62b8 1c3d
00000260: 81db 503d e218 863d c962 723d 37c3 233d
00000270: 281f e33c 1e99 563d 5957 283d b886 8b3d
00000280: c13b 893c d469 493d 0f29 943d 2987 183d
00000290: 21dc bf3b 9a60 4b3d 7458 573d c6aa 953d
000002a0: d8d7 363d 25cf 2a3d de2a d73c 05df 663d
000002b0: 91ed 573d cff8 443d 302c 793d 360f 6c3d
000002c0: cd9e f83c d1bf 303d 42e0 203d d822 823d
000002d0: 3008 073d f370 243d 0179 0a3d df72 273d
000002e0: 8c34 223d 9280 2f3d b987 163d 9445 8f3d
000002f0: 1c1a 603d 0756 023d 3fb0 623d 9258 5d3d
00000300: f8d6 2b3d e91c 2b3d d59c 503d c009 5d3d
00000310: 8487 4d3d 959b 973d 8b58 2f3d a894 e83a
0.047871225 0.030779913 0.038165893 0.063058205 0.046292365 0.034856446 0.052088164 0.044879604
0.050610457 0.040125176 0.074476376 0.049907457 0.06905469 0.055077422 0.054138824 0.0521417
0.034997284 0.07469261 0.044467643 0.05275943 0.06786944 0.045093056 0.029284125 0.0532323
0.06683857 0.039378937 0.045326132 0.050637208 0.054772973 0.053559903 0.07308372 0.06297944
0.027686412 0.043802552 0.060780928 0.025165563 0.049966715 0.028240357 0.037808355 0.04303739
0.015920864 0.07999503 0.05237396 0.054262735 0.04087583 -0.003688786 0.027921446 0.045688547
0.037695695 0.035356198 0.049432576 0.06306572 0.066861264 0.055816565 0.05369875 0.0112873465
0.03506028 0.030647712 0.046600837 0.045466926 0.08077967 0.06398338 0.045119688 0.03203552
0.03941283 0.04066582 0.060506042 0.05317544 0.056878008 0.022396807 0.021378579 0.040994994
0.063767925 0.06642344 0.04469017 0.05304214 0.042928576 0.058371145 0.08478782 0.054741517
0.08762723 0.05414822 0.08585031 0.027219366 0.06596783 0.05549853 0.048699122 0.043833684
0.048711807 0.038231082 0.06167607 0.0695252 0.07316632 0.03615032 0.0703029 0.0247062
0.046453632 0.059441436 0.08580445 0.07357074 0.05966981 0.037769303 0.055820692 0.057400495
0.06258735 0.04078921 0.01891439 0.035471134 0.06298379 0.058204092 0.043418083 0.03755056
0.061518192 0.031008724 0.033898372 0.058377665 0.06258865 0.057061635 0.04248901 0.06877622
0.042004265 0.019008571 0.027547162 0.035209365 0.05146963 0.05880303 0.06159264 0.023907265
0.041051723 0.09040701 0.04962787 0.057728164 0.054336693 0.031833775 0.04580536 0.047076777
0.053495817 0.03353826 0.027943945 0.02177248 0.07197594 0.050413717 0.053948015 0.038684867
0.049801685 0.044891298 0.038388785 0.053417187 0.051833075 0.048445538 0.043406993 0.03826178
0.050990585 0.06547715 0.05917624 0.039981093 0.027724817 0.052392118 0.041098926 0.06812805
0.016752126 0.04917319 0.07234394 0.037238274 0.005855099 0.049652673 0.05257459 0.07307963
0.04463944 0.041701455 0.026265558 0.05636503 0.052716795 0.048088845 0.060833156 0.057631694
0.03034916 0.04315168 0.03927637 0.06354302 0.032966793 0.04014678 0.033806805 0.040881034
0.039600894 0.042847224 0.03675053 0.06995693 0.0547124 0.031820323 0.055343863 0.054039545
0.041953057 0.041775618 0.050930817 0.053964376 0.050178066 0.07402722 0.04280905 0.0017744498
